geometry_solver/reinforcement_learning/ppo/PPO_CartPole-v1.pth (torch_old, 38871 bytes, 11 tensors)

action_layer.0.weight f4 [64, 4]
0	0xbeeba4fc	-0.4602431
1	0xbe586ea6	-0.21135959
2	0xbdace52f	-0.08442151
3	0x3d82463b	0.06361052
4	0x3d366ef9	0.044539426
5	0xbf025f67	-0.5092682
6	0x3e15ee2c	0.14641637
7	0xbee48ba9	-0.44637802
8	0xbe0777fb	-0.13229363
9	0xbed51172	-0.41614872
10	0x3eb60f64	0.35558617
11	0x3eb6c5f6	0.35697907
12	0xbeac0898	-0.33600307
13	0x3e590dc5	0.21196659
14	0x3dbc7698	0.092023075
15	0x3f0360e6	0.5131973
16	0xbed6d0fd	-0.4195632
17	0x3e248696	0.16066965
18	0xbeab3928	-0.33442044
19	0xbf07b4f5	-0.53010494
20	0x3eab5bee	0.33468574
21	0x3e9a766e	0.3016848
22	0x3eba2e00	0.3636322
23	0xbf077943	-0.52919406
24	0xbed040f1	-0.40674546
25	0x3e6c3a92	0.23069218
26	0xbda3730a	-0.07980926
27	0x3d8145a7	0.06312113
28	0xbda15cae	-0.07879005
29	0xbe879a1e	-0.2648477
30	0x3e73b7a7	0.23800527
31	0xbe3f02d9	-0.1865343
32	0x3cbdb7bd	0.023158902
33	0xbdfa53d5	-0.12223021
34	0x3edbae28	0.42906308
35	0x3ebe9b88	0.37228036
36	0x3e25582d	0.16146918
37	0x3ea6f9fc	0.32612598
38	0x3da772e7	0.08176213
39	0x3eb12025	0.34594837
40	0xbeec5014	-0.46154845
41	0x3e492b8b	0.19645517
42	0x3e23b031	0.1598518
43	0x3d564bf2	0.05231852
44	0x3dbb89fb	0.09157177
45	0x3ed55e0f	0.41673324
46	0x3df530f0	0.11972225
47	0x3e052ce1	0.13005401
48	0x3e81a8f0	0.25324202
49	0x3ed4436a	0.41457683
50	0xbe9be54d	-0.3044838
51	0xbed55dd1	-0.4167314
52	0x3e6aa965	0.22916181
53	0x3eca0870	0.39459562
54	0x3f2215ed	0.63314706
55	0x3e251b28	0.1612364
56	0xbebaa983	-0.36457452
57	0x3e0675d8	0.13130891
58	0xbe37fc28	-0.17967284
59	0xbf0bc511	-0.54597574
60	0x3e702e2b	0.23455112
61	0xbe3d69b2	-0.18497351
62	0xbe8f3c8a	-0.27975875
63	0x3e77cfba	0.24200335
64	0x3eb54d83	0.354107
65	0xbe430626	-0.19045314
66	0x3eeba27e	0.4602241
67	0x3efd0f12	0.4942556
68	0x3e46e213	0.19422178
69	0x3ea6c032	0.32568508
70	0x3ed2720d	0.4110264
71	0x3d921ade	0.07134031
72	0xbea00f74	-0.3126179
73	0xbe79e064	-0.24402004
74	0xbe0ceac8	-0.13761437
75	0xbe91de55	-0.28489938
76	0x3e825d00	0.25461578
77	0xbdb43de2	-0.08800866
78	0xbe06cd8b	-0.13164346
79	0x3e72b7df	0.23702954
80	0x3ea49811	0.32147267
81	0xbee5f99d	-0.44917002
82	0xb9b877ed	-0.00035184567
83	0x3ed8c781	0.4233971
84	0xbeecd6e7	-0.46257707
85	0xbe866e37	-0.26255962
86	0xbe0987bb	-0.13430683
87	0x3cda200a	0.026626606
88	0x3ed518d1	0.41620496
89	0xbe975b65	-0.29561916
90	0x3f04ad9f	0.51827425
91	0x3d4ea995	0.050454695
92	0x3dd18a6f	0.10231482
93	0xbb4b6536	-0.0031035668
94	0xbec9e5ff	-0.39433286
95	0x3db0e6b0	0.0863775
96	0x3dc97a2a	0.09837754
97	0x3efc092e	0.49225754
98	0xbe3c0f99	-0.18365325
99	0x3ef263c7	0.4734175
100	0x3b6e2a90	0.0036341287
101	0xbec58929	-0.38581207
102	0xbe52f7ce	-0.20602342
103	0xbec509ed	-0.38484135
104	0xbc13dbe7	-0.009024597
105	0xbeb48d16	-0.3526389
106	0xbeebca1c	-0.46052635
107	0xbdef3166	-0.11679344
108	0xbd51d32d	-0.051226784
109	0xbdbc8a6b	-0.09206089
110	0xbc5de34d	-0.013542962
111	0x3f03788b	0.5135581
112	0x3e5d9803	0.21640019
113	0x3e0cd406	0.13752756
114	0xbed136b6	-0.40862054
115	0xbe966133	-0.29371032
116	0xbe69626b	-0.2279145
117	0xbbd0acfa	-0.0063682767
118	0xbe4723bf	-0.1944723
119	0x3e0164e4	0.12636143
120	0x3ebf50e1	0.37366393
121	0x3ec162b8	0.3777063
122	0x3e289d3b	0.16466229
123	0xbe52775f	-0.20553349
124	0xbe3d88bd	-0.18509193
125	0x3e09763e	0.13424012
126	0xbe9dfa08	-0.3085482
127	0xbef4cc73	-0.47812232
128	0x3eaafd69	0.33396462
129	0xbd431fe7	-0.047637846
130	0x3f13e263	0.57767314
131	0x3edeafab	0.434934
132	0xbde902ef	-0.11377513
133	0xbeaa721e	-0.3329019
134	0xbde66bd6	-0.11251037
135	0x3e9bf94c	0.30463636
136	0x3dc31f34	0.09527436
137	0x3e2b9248	0.1675502
138	0x3e5b5353	0.21418504
139	0xbdadc230	-0.08484304
140	0xbd6cb388	-0.0577884
141	0x3ee4f5a4	0.4471866
142	0xbe9a9886	-0.3019449
143	0x3e787e89	0.2426702
144	0xbdd47ff8	-0.103759706
145	0xbe99a267	-0.30006716
146	0x3e3b7c66	0.18309173
147	0x3ea69215	0.32533327
148	0x3ec51c90	0.38498354
149	0xbe3d8c7e	-0.18510625
150	0xbf12bab2	-0.57316124
151	0x3da410c3	0.080110095
152	0x3e34808c	0.17627162
153	0xbeb66e57	-0.35631058
154	0x3d6e0de0	0.0581187
155	0xbe79ff08	-0.24413693
156	0xbed629f9	-0.41828898
157	0xbe8908ea	-0.26764613
158	0xbeb35764	-0.3502761
159	0x3db1c19a	0.08679505
160	0x3c51c3fd	0.012803075
161	0x3d67a391	0.056552473
162	0xbd9b28ac	-0.07576117
163	0xbf020d23	-0.50801295
164	0x3ecfd23e	0.4059009
165	0x3eb70681	0.3574715
166	0xbe3273d4	-0.17426997
167	0x3eae5ac1	0.34053615
168	0x3e70b530	0.23506618
169	0xbec37a2f	-0.38179156
170	0xbf069503	-0.52571124
171	0xbeffd472	-0.4996677
172	0x3e1b19cf	0.15146564
173	0x3e92a02f	0.28637835
174	0xbc5c47b3	-0.013444829
175	0xbe7604f0	-0.24025321
176	0x3dbe9f6f	0.09307753
177	0xbe4309c5	-0.19046696
178	0x3f0f9a40	0.5609474
179	0x3ebc3042	0.36755568
180	0x3d15fd88	0.03661874
181	0xbecca637	-0.39970562
182	0x3e9e07cf	0.30865332
183	0x3e8fde56	0.28099316
184	0xbe5a4180	-0.21314049
185	0xbdbcd214	-0.09219757
186	0xbd075c88	-0.03304723
187	0x3eb2a905	0.34894577
188	0xbf03c9b2	-0.5147964
189	0x3e972d36	0.2952668
190	0x3e367f90	0.17822099
191	0x3e3f819a	0.18701783
192	0x3ef5645c	0.4792813
193	0x3eedfb7d	0.46480933
194	0x3db77174	0.08957186
195	0xbe26cfdf	-0.16290234
196	0xbe1b3b43	-0.15159325
197	0x3eddfe34	0.43358004
198	0x3e23d29e	0.15998313
199	0xbe85ae4a	-0.26109535
200	0xbece4446	-0.40286463
201	0xbe514e58	-0.20440042
202	0x3da3f747	0.08006149
203	0xbf105bb8	-0.5638995
204	0x3c9a2f75	0.018821457
205	0x3d42a25e	0.047518127
206	0xbd84364c	-0.06455669
207	0xbeb1124a	-0.34584266
208	0x3ea068c0	0.31329918
209	0xbea58991	-0.32331517
210	0xbea941b7	-0.3305795
211	0x3c96aec1	0.018393876
212	0x3d22b65c	0.039724693
213	0xbe8d523e	-0.27601808
214	0x3e0a8b05	0.13529594
215	0xbef239a6	-0.47309607
216	0x3e8eac57	0.2786586
217	0xbe82738d	-0.25478783
218	0x3d285e29	0.041105423
219	0x3ecee74c	0.4041084
220	0xbebab8d3	-0.36469135
221	0xbde37777	-0.111067705
222	0x3d3227b7	0.043494906
223	0x3f106f10	0.5641947
224	0xbdbf9567	-0.09354668
225	0x3e12cf1b	0.14336817
226	0x3edf8aeb	0.43660673
227	0x3eb29062	0.3487578
228	0x3e87a0e9	0.26489952
229	0xbdf98eb6	-0.12185423
230	0x3c6282ab	0.013825099
231	0x3ca6e650	0.020373493
232	0xbe92293a	-0.28547078
233	0x3eb71146	0.35755366
234	0xbda3578c	-0.079756826
235	0x3e89a0b2	0.26880413
236	0xbf0017c5	-0.5003627
237	0xbee08e0a	-0.43858367
238	0xbe748403	-0.23878483
239	0x3eae0cb0	0.33994055
240	0x3e370c47	0.17875777
241	0xbee356a2	-0.44402033
242	0x3d8d6ac4	0.069051296
243	0x3ee68d1b	0.4502953
244	0x3eb5cc0e	0.35507244
245	0xbee2de74	-0.44310343
246	0x3ea4dfc5	0.32201973
247	0x3bbd7cf9	0.00578272
248	0x3edb4542	0.42826277
249	0xbe205475	-0.15657218
250	0xbdc9581e	-0.0983126
251	0x3e3cef4e	0.18450662
252	0x3ed4cc3f	0.41562077
253	0xbd133e40	-0.035948038
254	0x3e82fc5d	0.25583163
255	0x3ec8ee9a	0.3924454

action_layer.0.bias f4 [64]
0	0xbda871a7	-0.082248025
1	0x3e6b5fce	0.22985765
2	0x3e18a47b	0.14906494
3	0xbddff277	-0.109349184
4	0x3d0e3bac	0.034724876
5	0xbea6754b	-0.32511362
6	0x3eeb8fe6	0.46008223
7	0xbee811df	-0.45326135
8	0xbcef160d	-0.02918532
9	0xbece921e	-0.40345854
10	0x3ecc3f4f	0.3989205
11	0xbbf82e63	-0.007573889
12	0x3ddf1334	0.108923346
13	0x3e5aab88	0.21354496
14	0x3cc51271	0.024056645
15	0x3e571181	0.21002771
16	0xbe79f468	-0.2440964
17	0x3e5639ea	0.2092053
18	0xbdc78d23	-0.097437166
19	0xbe147d74	-0.14500982
20	0x3e16d8c7	0.14731131
21	0x3ed273b7	0.41103908
22	0x3ec2d0d7	0.38049957
23	0x3e8afa6b	0.2714418
24	0x3ed63384	0.41836178
25	0x3ea3efe3	0.32018957
26	0xbe626104	-0.22107321
27	0xbe1aeb51	-0.15128829
28	0xbc6c9e84	-0.01444209
29	0xbdaa31bb	-0.083102666
30	0xbe2a736c	-0.16645592
31	0xbe5cbd74	-0.21556646
32	0x3ed5310e	0.41638988
33	0x3ecb96a1	0.39763358
34	0x3dd8fd7f	0.105952255
35	0xbea20ce7	-0.3165047
36	0x3e627aa0	0.2211709
37	0xbe2bd43e	-0.16780183
38	0xbefa24b3	-0.48856124
39	0x3e6e26ab	0.23256938
40	0x3eae3031	0.34021142
41	0x3edac3f5	0.42727628
42	0x3e88a026	0.26684684
43	0x3e86f521	0.26358894
44	0xbeb2854a	-0.34867316
45	0xbccb0b5d	-0.024785692
46	0x3eb1e07d	0.34741583
47	0xbd8eb404	-0.06967929
48	0xbc9c0482	-0.019045118
49	0x3d530d4f	0.051526364
50	0xbd394f98	-0.045241922
51	0x3e315daf	0.17320894
52	0x3e58cb5b	0.21171324
53	0xbeb0ed1a	-0.34555894
54	0xbeb7f0fc	-0.35926044
55	0xbe7cf512	-0.24702862
56	0xbd4ea9b6	-0.050454818
57	0xbe324c90	-0.17412019
58	0x3e359137	0.17731176
59	0xbe625731	-0.22103573
60	0xbe72992f	-0.23691247
61	0x3e4fae65	0.2028137
62	0xbdebb5e3	-0.115093015
63	0x3d79c7aa	0.06098143

action_layer.2.weight f4 [64, 64]
0	0xbd812468	-0.06305772
1	0x3d331284	0.04371883
2	0xbce304f6	-0.027712326
3	0xbe1b8e7e	-0.15191075
4	0xbdab49e7	-0.08363705
5	0x3da678ff	0.08128547
6	0x3db17ffd	0.0866699
7	0xbdbe2854	-0.09285036
8	0xbe1ad6ac	-0.15120953
9	0xbce47678	-0.027888522
10	0xbdbbcdeb	-0.09170135
11	0xbd153833	-0.03643055
12	0xbd593a3a	-0.053034045
13	0x3d4869d2	0.048929043
14	0x3e1754c2	0.14778426
15	0x3d580b88	0.052745372
16	0x39319830	0.0001693673
17	0xbe27309f	-0.16327141
18	0x398f1f77	0.0002729853
19	0xbdb4b429	-0.08823425
20	0x3c8f3624	0.017481871
21	0xbd8b9061	-0.068146475
22	0xbd050eba	-0.032484747
23	0x3d1abf7d	0.037780274
24	0x3d5ac10c	0.05340676
25	0xbcbc1823	-0.022960728
26	0x3e11b2b5	0.14228328
27	0xbca370d1	-0.019951256
28	0xbc729f04	-0.01480842
29	0xbde4f0a1	-0.11178709
30	0x3dba2dd2	0.09090771
31	0x3e19a422	0.15004018
32	0xbe013938	-0.12619483
33	0xbd72e4da	-0.05930028
34	0xbdccb988	-0.09996325
35	0xbde332ad	-0.1109365
36	0x3cfc23cf	0.030778794
37	0x3d71918d	0.0589767
38	0xbd028dd9	-0.031873558
39	0xbd0a641c	-0.033786878
40	0xbc6c8574	-0.014436115
41	0xbdb8d844	-0.090256244
42	0x3d79412d	0.060853172
43	0xbd361374	-0.044452146
44	0x3ccd3b28	0.025052622
45	0x3dad0980	0.084490776
46	0x3da24cfc	0.0792484
47	0xbe134386	-0.14381227
48	0xbd8344b1	-0.06409586
49	0xbd9ebc95	-0.07750813
50	0xbd93b99f	-0.07213139
51	0x3dd70ca8	0.10500461
52	0xbcb525be	-0.022112723
53	0xbd1fb942	-0.038995035
54	0xbd2c6e24	-0.042097226
55	0x3d4674b5	0.048451144
56	0xbda145d2	-0.07874645
57	0x3e05cd17	0.13066517
58	0xbda3cd06	-0.079980895
59	0x3da1f3fe	0.07907866
60	0x3d447f75	0.047973115
61	0x3d57cc6b	0.052685183
62	0xbd5d5db3	-0.054044437
63	0xbdd422b8	-0.103581846
64	0xbd138311	-0.036013667
65	0x3dbc341e	0.09189628
66	0xbde8776e	-0.113509044
67	0x3d52c222	0.05145467
68	0x3e174349	0.14771761
69	0x3d1ece75	0.03877111
70	0xbda271fc	-0.07931897
71	0x3d11b83b	0.035576086
72	0x3bf8e58d	0.007595724
73	0x3d7c18a3	0.061546933
74	0xbde37346	-0.11105971
75	0xbcb0cab8	-0.021581039
76	0x3d5ddbb6	0.05416461
77	0xbd6891bb	-0.056779604
78	0x3d492607	0.04910853
79	0x3c13cc09	0.009020814
80	0xbdfd8dad	-0.12380538
81	0xbcb026d9	-0.021502899
82	0xbc9ecd7d	-0.019385094
83	0xbd196525	-0.037449975
84	0xbde3ed08	-0.111291945
85	0x3d20f9cc	0.039300725
86	0xbd89e2e0	-0.06732726
87	0x3dc16cc1	0.09444571
88	0xbdcc2fb7	-0.099700384
89	0x3d8f64de	0.07001661
90	0xbd2e01bb	-0.04248212
91	0xbddaab38	-0.10677189
92	0x3d0d0cf3	0.034436177
93	0x3d554127	0.052064087
94	0xbd3254e8	-0.043538004
95	0x3cb89101	0.02253008
96	0x3d86aab4	0.06575528
97	0xbda87bdd	-0.0822675
98	0xbdbdedea	-0.09273894
99	0x3dac87f7	0.08424371
100	0x3d2b4ef8	0.041823357
101	0x3e17211b	0.14758722
102	0x3d8c3a53	0.06847062
103	0xbc49f2cc	-0.012325954
104	0xbc2f50b4	-0.0107003935
105	0xbaf3c3f4	-0.0018597827
106	0x3d95a75c	0.07307312
107	0x3db669b1	0.08906878
108	0x3d54659b	0.05185471
109	0xbc952698	-0.01820688
110	0x3d84482a	0.06459077
111	0x3d84f84c	0.06492671
112	0x3d6552fc	0.055987343
113	0xbdbccb91	-0.09218515
114	0xbd415281	-0.047197822
115	0x3daa556f	0.083170764
116	0xbdbba880	-0.09162998
117	0x3db46961	0.08809162
118	0xbd91f7db	-0.07127353
119	0xbe26b4ca	-0.16279903
120	0xbdf65f77	-0.12029927
121	0xbc96763c	-0.018366925
122	0x3d31db35	0.043421943
123	0xbe0497ac	-0.12948483
124	0xbce6e815	-0.028186837
125	0xbd433714	-0.04765995
126	0x3df700ee	0.12060724
127	0xbd392bff	-0.045207974
128	0xbdbbdda4	-0.09173134
129	0x3de7e097	0.11322134
130	0xbdfbdac6	-0.12297587
131	0xbe27d3ee	-0.16389439
132	0x3e104db8	0.14092147
133	0x3e0ee5fc	0.1395492
134	0x3c98e41b	0.018663457
135	0xbd8e5c19	-0.0695116
136	0x3d1be960	0.03806436
137	0xbde6015b	-0.11230727
138	0xbd86bde6	-0.06579189
139	0x3d7d8564	0.06189479
140	0x3d971f69	0.07379038
141	0xbdfbe64d	-0.12299786
142	0x3dd453c1	0.10367537
143	0x3d224d92	0.039624758
144	0xbc8e7ae3	-0.017392581
145	0xbd932914	-0.071855694
146	0x3d3896d8	0.04506573
147	0xbdfd090a	-0.1235524
148	0x3db1b574	0.086771876
149	0x3de24f7a	0.11050315
150	0xbd930b72	-0.071799174
151	0x3c94b2a4	0.018151589
152	0x3d962aa7	0.07332354
153	0xbd810b4a	-0.06300981
154	0x3c72d461	0.014821143
155	0x3d038ff6	0.032119714
156	0xbd0a5464	-0.033771887
157	0xbdc980eb	-0.09839042
158	0x3de40975	0.11134616
159	0x3cfa5570	0.030558318
160	0xbd6df994	-0.058099344
161	0xbdf3e919	-0.11909694
162	0xbd91fdd7	-0.07128494
163	0x3dd5738e	0.10422431
164	0x3d84e734	0.06489411
165	0x3e370da4	0.17876297
166	0x3dd52f03	0.104093574
167	0x3d0bd25f	0.034136172
168	0x3c133634	0.008985091
169	0xbd7d71ce	-0.06187611
170	0x3e053ab5	0.13010676
171	0xbd8ef158	-0.069796264
172	0xbcbbe76a	-0.022937495
173	0xbdb01884	-0.08598426
174	0xbe173c32	-0.14769056
175	0xbdacf366	-0.08444862
176	0x3d9f4cbd	0.077783085
177	0xbdcfb0f1	-0.10141171
178	0x3d815249	0.06314523
179	0x3d9b77d9	0.075912185
180	0xbdaf7650	-0.08567488
181	0xbd8d6999	-0.06904907
182	0xbdc24817	-0.09486406
183	0xbe157a9a	-0.1459755
184	0x3d0914e6	0.033467196
185	0xb9a895e8	-0.00032155146
186	0x3bb777d0	0.0055989996
187	0xbd93d509	-0.072183676
188	0xbcbc8a4b	-0.023015162
189	0xbe07cad6	-0.1326097
190	0xbd7380fe	-0.05944919
191	0x3ce7c4e6	0.02829213
192	0xbd9aa912	-0.07551779
193	0x3bbadd4a	0.0057026492
194	0xbdb50f6d	-0.08840833
195	0x3dff5ff1	0.12469471
196	0xbd1208cc	-0.03565292
197	0xbc51d868	-0.012807943
198	0x3de777ce	0.11302148
199	0xbb9e5d93	-0.0048329323
200	0x3e01a702	0.12661365
201	0x3d820e2e	0.06350361
202	0xbd6cf838	-0.057853907
203	0x3db0b237	0.08627742
204	0xbdb01329	-0.085974045
205	0x3e3fe009	0.18737806
206	0x3d1f9fdf	0.038970824
207	0x3bcffb80	0.00634712
208	0x3db8bfe3	0.090209745
209	0x3dbd71d9	0.0925023
210	0x3d440124	0.04785265
211	0xbd28bf0f	-0.041197833
212	0xbdb3de7d	-0.08782671
213	0xbd708589	-0.0587211
214	0x3da0334b	0.07822283
215	0x3aba9be0	0.0014237128
216	0x3dc9c27f	0.0985155
217	0xbdc184cc	-0.09449157
218	0x3c0085e8	0.007844426
219	0x3d4fb1c7	0.05070665
220	0x3cf637e8	0.030055955
221	0xbd747196	-0.059678636
222	0xbda0b5b6	-0.078471586
223	0xbdb8de47	-0.09026771
224	0x3d03968a	0.032125987
225	0x3d96f9da	0.07371874
226	0xbdc0d948	-0.09416443
227	0x3d6a1bd3	0.05715544
228	0xbdad0a13	-0.08449187
229	0xbdbd7df1	-0.09252537
230	0xbc33cbfc	-0.010973927
231	0xbccd483e	-0.025058862
232	0xbdbc4671	-0.09193123
233	0x3d3edc69	0.04659692
234	0xbd8252ac	-0.06363425
235	0x3ddbea8b	0.10738095
236	0x3e1a92e8	0.15095103
237	0x3dbbe511	0.0917455
238	0x3bf3dd96	0.0074421866
239	0x3dcc397f	0.09971904
240	0x3df1419f	0.11780094
241	0x3cfb5456	0.030679863
242	0xbdb678b7	-0.08909743
243	0xbc948cee	-0.018133607
244	0x3ca8ad9d	0.020590598
245	0x3d1882e5	0.037234206
246	0xbd5be9e5	-0.053689856
247	0x3c88a948	0.016682282
248	0x3e0e41bc	0.13892263
249	0xbc30961e	-0.010777978
250	0x3dc45e04	0.095882446
251	0x3d8c0d60	0.068384886
252	0x3d993313	0.07480445
253	0x3dd31510	0.10306752
254	0x3cd46476	0.02592681
255	0xbd6a2b41	-0.057170156

action_layer.2.bias f4 [64]
0	0x3ca7fe2a	0.020506937
1	0xbd092cbc	-0.033489928
2	0x3dd3d267	0.103428654
3	0xbd39c36a	-0.045352377
4	0x3dddc6dc	0.10828945
5	0x3c299791	0.010351078
6	0xbcb6669f	-0.02226573
7	0xbd19c39b	-0.03754006
8	0x3da36dd8	0.079799354
9	0x3da864b9	0.08222336
10	0x3d5fb88a	0.05461935
11	0x3d915920	0.07097077
12	0xbdb2efe0	-0.08737159
13	0xbca1220b	-0.019669553
14	0x3d70a472	0.058750577
15	0x3d48fdfd	0.049070347
16	0x3dbe0ef3	0.09280195
17	0xbdc4129d	-0.09573863
18	0xbc0ce178	-0.008598678
19	0x3d8c4186	0.06848435
20	0x3d640f65	0.055678744
21	0x3d9906b4	0.07471982
22	0x3b5ced05	0.003371061
23	0x3defcc1f	0.11708855
24	0x3d1e8427	0.03870025
25	0xbd12eac5	-0.035868425
26	0xbcf0ea38	-0.02940856
27	0x3d14ac60	0.036297202
28	0x3d21cee9	0.039503966
29	0x3cbb16a1	0.022837939
30	0xbce8b294	-0.028405465
31	0xbc6d5519	-0.014485621
32	0x3d9ae47c	0.07563111
33	0x3bd3e489	0.0064664525
34	0x3dac9f31	0.08428801
35	0xbd4aaae0	-0.049479365
36	0x3d1e1c56	0.038601242
37	0xbdbe16a5	-0.09281663
38	0x3dc9c062	0.09851147
39	0xbdb8a653	-0.09016099
40	0xbd9372cf	-0.071996324
41	0x3d9cfcfe	0.07665442
42	0x3d9b3b7e	0.075797066
43	0xbd726c0b	-0.05918507
44	0xbd7ec784	-0.06220199
45	0x3d800232	0.06250419
46	0xbd0d017f	-0.034425255
47	0xbcfe9734	-0.031077959
48	0xbdaebc2a	-0.08531983
49	0x3d74bce8	0.059750468
50	0xbc83e088	-0.016098276
51	0x3bda5786	0.0066632656
52	0x3d6ee6f0	0.058325708
53	0x3dc7bb4e	0.097525224
54	0x3dcee521	0.101022966
55	0x3d77301a	0.060348608
56	0xbc67f00b	-0.014156352
57	0x3c940b74	0.018071868
58	0xbd385375	-0.045001466
59	0x3d8ce528	0.068796456
60	0xbaf414b9	-0.0018621898
61	0x3db65485	0.089028396
62	0xbb33df42	-0.0027446304
63	0xbd805b2c	-0.0626739

action_layer.4.weight f4 [2, 64]
0	0xbd228842	-0.039680727
1	0x3e12c080	0.14331245
2	0x3de41ab3	0.11137905
3	0xbe00f726	-0.1259428
4	0xbc695ea2	-0.014243754
5	0x3e21527e	0.15754125
6	0x3d6cd8e9	0.05782405
7	0xbc92dfd7	-0.017929
8	0xbe0d7d25	-0.1381727
9	0x3d3c82aa	0.04602305
10	0x3e32cbd4	0.17460567
11	0x3d8fc3af	0.070197456
12	0x3d2b476e	0.041816168
13	0x3df2b97f	0.11851787
14	0x3e02669b	0.12734453
15	0x3e0c372e	0.13692924
16	0x3db06044	0.08612111
17	0xbdf0d030	-0.117584586
18	0xbde1f37a	-0.110327676
19	0x3dfb266d	0.122631885
20	0xbde62b9b	-0.11238786
21	0xbd72c341	-0.05926824
22	0xbd3bc988	-0.045846492
23	0xbdffdd70	-0.12493408
24	0xbe249743	-0.16073327
25	0x3d4916c3	0.049093973
26	0xbdfaff42	-0.12255718
27	0x3cfc56c8	0.0308031
28	0xbdba2821	-0.09089685
29	0x3d9d637e	0.07684992
30	0xbdb4070a	-0.08790405
31	0xbd239b97	-0.039943304
32	0x3d5626f5	0.052283246
33	0x3da4ebe8	0.08052808
34	0x3e13a9cc	0.14420241
35	0x3c0559c2	0.008139076
36	0xbd3684cd	-0.044560242
37	0xbe0da0c9	-0.13830866
38	0x3d84f2e0	0.06491637
39	0xbd8c2c69	-0.06844408
40	0x3d737e2a	0.05944649
41	0x3d0ac706	0.03388121
42	0xbdd64216	-0.10461824
43	0x3d68f659	0.05687556
44	0x3d649a9b	0.055811506
45	0x3cca07b4	0.024661876
46	0x3e0fafba	0.14031878
47	0xbd9048a0	-0.07045102
48	0xbd6295fd	-0.05531882
49	0xbcceb427	-0.025232388
50	0x3defc155	0.11706797
51	0x3e276a00	0.1634903
52	0xbdfc0c1f	-0.123069994
53	0xbdd48fc4	-0.103789836
54	0x3dcff3ef	0.101539485
55	0x3b901f3b	0.004398254
56	0xbd0d65c9	-0.034520898
57	0xbe1ec47f	-0.15504645
58	0xbe0ec5d7	-0.13942657
59	0xbc54bf28	-0.012985028
60	0xbcffe06f	-0.031234948
61	0x3d955b96	0.07292859
62	0x3d876b96	0.06612317
63	0x3b842b3a	0.0040334733
64	0xbdabda0f	-0.08391201
65	0x3cc57dd8	0.024107859
66	0xbe0b3479	-0.13594235
67	0xbce93a49	-0.028470175
68	0x3dfaed0a	0.12252243
69	0xbc904eb8	-0.017615661
70	0xbe0b8047	-0.13623153
71	0x3de5a0bb	0.112122975
72	0x3e30d392	0.17268208
73	0xbdad72a3	-0.08469131
74	0xbe04f8b3	-0.12985496
75	0x3d4a24d4	0.04935153
76	0x3dc41386	0.09574036
77	0xbd439526	-0.04774966
78	0xbda7c71c	-0.08192274
79	0x3c617e7a	0.0137630645
80	0xbdc8815c	-0.09790298
81	0x3d908856	0.07057254
82	0xbd4b942c	-0.049701855
83	0xbbbee239	-0.0058253077
84	0x3e19fb04	0.15037161
85	0xbd66e4ed	-0.056370664
86	0xbc48d017	-0.012256644
87	0x3d73c9a8	0.059518486
88	0x3cd3afb8	0.025840625
89	0xbe005608	-0.12532818
90	0xbc17c071	-0.00926219
91	0xbd89abae	-0.067221984
92	0x3ce5b887	0.028042091
93	0xbd62bfad	-0.055358578
94	0x3e378d25	0.17924936
95	0xbc734066	-0.014846897
96	0x3df94e53	0.12173142
97	0xbdca4c34	-0.09877816
98	0xbdb17a15	-0.086658634
99	0x3dbda13b	0.09259268
100	0xbd1bce43	-0.038038503
101	0x3d23bfbd	0.039977778
102	0x3db72848	0.0894323
103	0xbc043146	-0.008068388
104	0xbd6bf2ee	-0.057604723
105	0xbde09b06	-0.109670684
106	0x3d95ded7	0.07317894
107	0xbd4b6275	-0.049654443
108	0xbe02e298	-0.12781751
109	0xbe005188	-0.12531102
110	0xbda0147f	-0.07816409
111	0x3d38ad0b	0.0450869
112	0x3de8284a	0.113358095
113	0xbd8cce2d	-0.068752624
114	0xbddbdff7	-0.10736077
115	0xbdd164c7	-0.102243
116	0x3c1932e8	0.009350516
117	0xbcbd2ae9	-0.02309175
118	0x3df991af	0.1218599
119	0xbd5c0f4c	-0.053725526
120	0xbd3893c2	-0.045062788
121	0x3dc2770a	0.09495361
122	0x3d9274fb	0.071512185
123	0x3e29f414	0.16597015
124	0xbe2681a8	-0.16260397
125	0xbe340583	-0.17580228
126	0xbdac2f84	-0.084075004
127	0x3e078924	0.13235909

action_layer.4.bias f4 [2]
0	0x3d8d0353	0.068854
1	0xbcfb5e94	-0.030684747

value_layer.0.weight f4 [64, 4]
0	0x3ebc440a	0.3677066
1	0xbefd6791	-0.49493077
2	0x3dcf1a63	0.10112455
3	0xbe84670e	-0.25859874
4	0xbe0f9631	-0.14022137
5	0x3e5d2bee	0.21598789
6	0xbe9d0e40	-0.30674934
7	0x3ea42311	0.32058004
8	0xbecb9d76	-0.3976857
9	0xbdd6b22e	-0.10483204
10	0x3da267ef	0.0792998
11	0x3ed872a5	0.42274967
12	0x3cfd926c	0.030953608
13	0x3e8bbe9d	0.27293864
14	0x3e6e8194	0.23291618
15	0x3d9500f4	0.072755724
16	0xbecb7c9e	-0.39743513
17	0xbe88c4c0	-0.26712608
18	0x3e1a8c20	0.15092516
19	0x3ddfcbe8	0.10927564
20	0x3e6a784f	0.22897457
21	0xbe723a86	-0.23655137
22	0x3ea7abe4	0.3274833
23	0x3db552cc	0.08853683
24	0x3ed1c9b9	0.40974215
25	0x3dd7fa96	0.10545842
26	0x3d10a4dc	0.035313472
27	0x3ec9bbee	0.3940119
28	0xbe485ff0	-0.19567847
29	0x3ea5aff3	0.323608
30	0xbe4c4c39	-0.19950952
31	0xbea2860e	-0.317429
32	0x3e896faa	0.26843005
33	0xbec33e80	-0.3813362
34	0x3de757d0	0.11296046
35	0xbe365fea	-0.17810026
36	0xbe094e25	-0.13408716
37	0xbe983821	-0.29730323
38	0x3ee9017f	0.45508954
39	0xbe95b8a8	-0.29242444
40	0x3eb17b8d	0.34664574
41	0x3e2a8695	0.16652901
42	0x3e695a7b	0.22788422
43	0xbeeba9ec	-0.46028078
44	0x3eb28154	0.34864295
45	0xbe8eea13	-0.2791296
46	0x3e4744a2	0.19459775
47	0x3e065305	0.13117607
48	0xbeb275a4	-0.34855378
49	0x3efdd0ba	0.49573308
50	0xbef93b3e	-0.4867801
51	0xbdd2c2cf	-0.10291063
52	0xbecd13c2	-0.40054137
53	0xbee956da	-0.45574075
54	0x3f00009e	0.5000094
55	0xbec680cc	-0.3877014
56	0x3e0ad942	0.1355944
57	0xbe8c9cb8	-0.27463317
58	0xbded2fd2	-0.115813866
59	0x3d8f3b92	0.06993784
60	0xbdb19bf5	-0.086723246
61	0xbdd3de72	-0.103451625
62	0x3caaea5f	0.02086371
63	0xbefbad63	-0.4915572
64	0x3e0e1e4e	0.13878748
65	0x3ec2e141	0.3806248
66	0x3eb555e8	0.35417104
67	0x3db86452	0.090035096
68	0x3ec120ee	0.37720436
69	0xbe76727f	-0.24067114
70	0x3ec04894	0.37555373
71	0x3e1ccba9	0.15312065
72	0x3e644f85	0.2229596
73	0xbd6e92c1	-0.058245424
74	0x3dcdf33f	0.10056161
75	0xbe30e83d	-0.17276092
76	0xbeecfa4d	-0.46284714
77	0x3e894fab	0.26818594
78	0xbda0a70d	-0.078443624
79	0x3c10887d	0.008821604
80	0xbb6e24ba	-0.0036337809
81	0xbeab435f	-0.33449838
82	0xbe6b269e	-0.2296395
83	0x3e9a6b9f	0.30160233
84	0xbeaf18f0	-0.34198713
85	0x3e873f0d	0.2641529
86	0xbd20dcdf	-0.03927314
87	0x3ecfdb79	0.40597132
88	0xbe1039d4	-0.1408456
89	0x3df94022	0.121704355
90	0x3ef8b1f9	0.48573282
91	0x3e90962c	0.28239572
92	0xbef8874b	-0.4854072
93	0x3e3feaaa	0.18741861
94	0x3f03eb38	0.5153079
95	0xbc0e9455	-0.008702357
96	0xbdd951ac	-0.10611281
97	0x3e9af777	0.30266926
98	0xbf07b5c9	-0.5301176
99	0x3eb832c0	0.3597622
100	0x3e4de667	0.20107423
101	0xbe5d52df	-0.21613644
102	0x3b51784e	0.0031962576
103	0x3eae7413	0.34072933
104	0x3e99b7e8	0.30023122
105	0xbe0bfe20	-0.1367116
106	0x3ef0d3cb	0.47036585
107	0x3eabc0ec	0.33545625
108	0xbeee455e	-0.46537298
109	0x3eb4432c	0.35207498
110	0x3e5da58a	0.2164518
111	0xbe65e108	-0.22449124
112	0x3eaf2da2	0.34214503
113	0xbe659e87	-0.22423755
114	0x3ebc980f	0.36834762
115	0x3ede583f	0.434267
116	0xbd90e01c	-0.070739955
117	0x3e13bfa6	0.14428577
118	0xbdfc7a1a	-0.123279765
119	0x3e96d1b2	0.2945686
120	0x3e795d42	0.24351981
121	0xbe45942c	-0.19294804
122	0xbe707a22	-0.2348409
123	0xbdfbd008	-0.12295538
124	0x3f058abe	0.5216483
125	0xbc1d64fb	-0.009606595
126	0x3edb2165	0.42798916
127	0xbeacf795	-0.3378264
128	0x3ed805cb	0.4219192
129	0xbe9b50ca	-0.30335075
130	0xbe35b29a	-0.17743912
131	0xbe1c092d	-0.15237875
132	0x3ec84c46	0.39120692
133	0x3dcd2a1f	0.100177996
134	0x3cb1dd22	0.02171189
135	0x3e8bec41	0.27328685
136	0x3e754c66	0.23954925
137	0x3e633d53	0.22191362
138	0x3e78c56e	0.24294063
139	0xbecba53f	-0.3977451
140	0x3eeee2e0	0.46657467
141	0x3ec9ec24	0.39437973
142	0xbe1673d1	-0.14692618
143	0x3eb072d9	0.34462622
144	0xbe71b837	-0.23605429
145	0x3ec3a1bd	0.38209334
146	0xbedaefc1	-0.42761043
147	0xbefdd62e	-0.4957747
148	0x3ea8de4e	0.32982105
149	0xbc2e2ff1	-0.010631547
150	0x3eb807fa	0.35943586
151	0x3ea9caf1	0.33162645
152	0xbe0695e4	-0.13143116
153	0x3e4c8a65	0.19974668
154	0x3cb2440b	0.021760961
155	0x3e74fced	0.23924609
156	0xbd186b44	-0.03721167
157	0xbda69f2d	-0.08135829
158	0xbeb56ac1	-0.3543301
159	0x3e81ae55	0.25328317
160	0xbf066c6a	-0.52509177
161	0xbe46c10c	-0.19409579
162	0xbd866f66	-0.06564216
163	0xbecc81b1	-0.39942697
164	0xbeadee3c	-0.3397082
165	0x3d7372c5	0.059435625
166	0x3e1c173a	0.15243235
167	0xbd1e5cfe	-0.038662903
168	0xbd6933ad	-0.056934047
169	0xbef9b212	-0.4876867
170	0xbe39dc7c	-0.18150514
171	0xbef33926	-0.47504538
172	0x3e8c5dfe	0.2741546
173	0x3eb6a6e6	0.35674208
174	0xbe7db549	-0.24776186
175	0xbebf7d2d	-0.3740019
176	0xbef43e1e	-0.47703642
177	0xbe09c6de	-0.13454768
178	0xbe07212d	-0.1319625
179	0x3e1bbf97	0.15209804
180	0x3f03d340	0.51494217
181	0x3e6d5a31	0.23178937
182	0xbe5ac2ae	-0.21363327
183	0x3e49295f	0.19644688
184	0xbebed04b	-0.3726829
185	0x3ea523c0	0.32253838
186	0x3ebc4a37	0.3677537
187	0x3e658aa6	0.22416171
188	0x3e8fc7ac	0.28082025
189	0xbdf569d0	-0.11983073
190	0xbe4552e9	-0.19269909
191	0x3c459fd1	0.012062029
192	0x3f08e10c	0.53468394
193	0x3e9b70be	0.30359453
194	0x3e3dbd7e	0.18529317
195	0x3ef44abe	0.47713274
196	0x3e053c54	0.13011295
197	0xbeac41bc	-0.336439
198	0x3e966953	0.2937723
199	0x3eec6645	0.46171775
200	0x3e878502	0.26468664
201	0x3ebb0766	0.36529082
202	0xbe55cc26	-0.20878658
203	0x3e49d9ea	0.19712034
204	0xbe9b8e06	-0.30381793
205	0x3ed539dc	0.41645706
206	0xbde3c226	-0.11121015
207	0x3ee54aee	0.4478373
208	0xbe346235	-0.17615588
209	0x3e9dbeaf	0.30809543
210	0x3e857b63	0.260707
211	0xbebe253a	-0.37137777
212	0xbe8271be	-0.25477403
213	0xbe91b74a	-0.2846015
214	0x3edceeee	0.4315104
215	0xbe9c33b7	-0.30508205
216	0xbede485f	-0.4341459
217	0xbde85574	-0.11344424
218	0xbeb7b11e	-0.35877317
219	0x3ef48652	0.47758728
220	0xbedb069d	-0.42778483
221	0x3c2e9758	0.0106562
222	0x3ebcd23f	0.36879155
223	0x3ecace2d	0.39610425
224	0x3e9f42f3	0.31105766
225	0xbe1feb75	-0.15617163
226	0xbe4c748a	-0.19966331
227	0xbe765b6c	-0.24058312
228	0x3e12ea73	0.14347248
229	0x3e8fc1e8	0.28077626
230	0x3e59edb5	0.21282084
231	0x3e952e23	0.29136762
232	0xb5e6d321	-1.7197782e-06
233	0xbe9cec37	-0.30648968
234	0xbe53e2b1	-0.20691945
235	0xbd9eb706	-0.07749753
236	0xbefe8b2e	-0.4971556
237	0x3d5a5579	0.05330417
238	0xbe99ed75	-0.30063978
239	0x3e37db8a	0.17954841
240	0x3d93cdfa	0.07217021
241	0x3e92fd08	0.28708673
242	0xbd07c569	-0.03314725
243	0x3e8fee1b	0.28111348
244	0xbdcfe592	-0.10151209
245	0xbe8203e0	-0.2539358
246	0x3edd4fff	0.43225095
247	0x3d8eada2	0.069667116
248	0x3e48c1ea	0.19605222
249	0x3ee0a7ad	0.43877926
250	0xbe1a9601	-0.15096284
251	0xbeb35c59	-0.35031393
252	0x3ef5dfda	0.48022348
253	0xbe302309	-0.17200865
254	0x3d8765de	0.066112265
255	0xbe7d099b	-0.24710695

value_layer.0.bias f4 [64]
0	0xbe5d9c63	-0.21641688
1	0x3d98cdc6	0.07461123
2	0xbce5cc76	-0.028051596
3	0xbe0e9560	-0.1392417
4	0xbeb9ce29	-0.362901
5	0x3e57ec9e	0.21086356
6	0x3e9eaab9	0.30989626
7	0xbe8e07fc	-0.27740467
8	0x3e47c2da	0.19507924
9	0xbe754278	-0.23951137
10	0x3e903a50	0.2816949
11	0xbe08631e	-0.1331906
12	0xbd86eb4f	-0.0658785
13	0x3c1a6f90	0.009426013
14	0x3e8d1581	0.2755547
15	0x3e433aa2	0.19065335
16	0x3d93923e	0.07205628
17	0x3eeabc4c	0.45846784
18	0xbda3aaec	-0.07991585
19	0xbea03d50	-0.31296778
20	0xbef9e749	-0.4880927
21	0x3ec37447	0.3817465
22	0x3ebc8a32	0.36824185
23	0xbef07c54	-0.46969855
24	0x3e0b2914	0.13589889
25	0x3e02ec60	0.12785482
26	0x3e35ec86	0.17766008
27	0xbea30830	-0.31842184
28	0x3ea568f1	0.32306626
29	0x3eb4e3e3	0.35330114
30	0x3ee7dde8	0.4528649
31	0x3e468d8a	0.1938993
32	0xbcedbc7c	-0.02902054
33	0x3d680eed	0.05665486
34	0xbe299c7d	-0.16563602
35	0x3e9a1a27	0.30098078
36	0xbedb96fb	-0.42888626
37	0xbeb4ee95	-0.35338274
38	0xbea4e784	-0.32207882
39	0xbebac602	-0.36479193
40	0x3f122976	0.57094514
41	0x3d36178d	0.044456054
42	0x3c82d22c	0.015969358
43	0xbedf7ef7	-0.43651554
44	0xbf0136f1	-0.5047446
45	0x3ec9316a	0.39295512
46	0x3f056f4c	0.5212295
47	0x3ec33ee2	0.38133913
48	0xbec4bfa7	-0.3842747
49	0xbec254c5	-0.379553
50	0xbc820cff	-0.015875338
51	0x3e4130e9	0.18866314
52	0xbd0a9ee2	-0.03384293
53	0xbebad63f	-0.36491582
54	0x3eaa7fd2	0.33300644
55	0x3e75e920	0.24014711
56	0xbe1e1d03	-0.15440755
57	0xbe177241	-0.14789678
58	0xbe41bde2	-0.18920091
59	0xbe0f0445	-0.13966472
60	0xbdd12b7a	-0.102133706
61	0xbe7bc50c	-0.24586886
62	0xbe645efa	-0.22301856
63	0x3eb53451	0.35391477

value_layer.2.weight f4 [64, 64]
0	0x3bda6cdf	0.0066658105
1	0x3dbdcd22	0.092676416
2	0xbe1a9be1	-0.15098526
3	0xbd69f5b1	-0.057119075
4	0x3dc103ae	0.0942453
5	0xbdc6965a	-0.09696646
6	0xbd828ad2	-0.06374134
7	0xbdd05e1e	-0.101742014
8	0x3dac7f5e	0.08422731
9	0xbbce45ff	-0.0062949653
10	0x3e014c26	0.12626705
11	0xbcc4ae98	-0.024009034
12	0xbbd7ec56	-0.0065894527
13	0x3ddcfd48	0.10790497
14	0xbd19fd88	-0.037595302
15	0xbdbd8045	-0.09252981
16	0x3d7e97ce	0.06215649
17	0x3d4c8dae	0.049939804
18	0xbd996259	-0.074894615
19	0xbde3bfa9	-0.11120541
20	0x3d46fcc2	0.048580892
21	0xbe274b86	-0.16337404
22	0xbdbc81dd	-0.09204457
23	0xbd89676d	-0.0670918
24	0x3dc7b819	0.09751911
25	0xbd68fffc	-0.05688475
26	0xbdc6aad4	-0.09700552
27	0x3cc5591d	0.024090344
28	0xbd9311b3	-0.0718111
29	0xbd7fd636	-0.062460147
30	0xbd67ba1a	-0.056573965
31	0x3dda32c7	0.10654216
32	0x3e0ab005	0.13543709
33	0x3df6931e	0.12039779
34	0x3d6b4a8b	0.057444137
35	0x3d8ca308	0.06867033
36	0x3e0bb62d	0.13643713
37	0xbb3b012f	-0.002853464
38	0x3d229905	0.039696712
39	0xbe1d5ed5	-0.15368207
40	0xbdfc74ec	-0.123269886
41	0x3de4ead9	0.11177606
42	0xbd63f44f	-0.055652913
43	0x3e22d1bd	0.15900321
44	0x3d338d49	0.043835912
45	0xbdb160c3	-0.08661034
46	0xbe05c8f4	-0.13064939
47	0x3d5bdaf3	0.053675603
48	0x3e0fb5d4	0.14034206
49	0xbc5e459e	-0.013566403
50	0x3ced6d4e	0.028982785
51	0xbdb279c7	-0.087146334
52	0xbd9b4ea7	-0.07583361
53	0x3dc18379	0.094489045
54	0xbcad5203	-0.02115727
55	0xbe212455	-0.15736516
56	0xbcd50a1c	-0.026005797
57	0x3d306962	0.04306925
58	0xbd9bcd5a	-0.07607527
59	0x3d2c5e37	0.042082038
60	0xbd831d44	-0.06402066
61	0x3d1af2d7	0.037829246
62	0x3e0a5d44	0.1351214
63	0x3c2572ab	0.01009814
64	0xbc638591	-0.013886825
65	0xbd981dbe	-0.07427548
66	0x3d570c22	0.052501805
67	0xbdd5eeb5	-0.104459204
68	0xbc9d1f58	-0.019179985
69	0x3d8a714b	0.0675989
70	0xbdcfae35	-0.10140649
71	0x3da38700	0.079847336
72	0xbdfea6e9	-0.12434179
73	0xbd7c2de2	-0.061567195
74	0x3dcfdc70	0.10149467
75	0x3dbefed8	0.09325951
76	0xbd9f5b03	-0.07781031
77	0x3d77a794	0.06046255
78	0xbd3607c2	-0.044440992
79	0xbc2e95b4	-0.010655809
80	0xbd3b07ae	-0.04566162
81	0xbdd3ef21	-0.103483446
82	0x3cb0ecba	0.021597255
83	0x3d721d4b	0.059109967
84	0x3d45b65b	0.04826961
85	0xbd8cb883	-0.0687113
86	0xbe128630	-0.14309001
87	0xbdfc71ae	-0.1232637
88	0x3cf82142	0.030289296
89	0xbcac5433	-0.021036243
90	0xbb83e555	-0.0040251412
91	0x3ce9ad13	0.028524911
92	0xbcc8090b	-0.024418375
93	0xbe01d14d	-0.12677498
94	0x3d879856	0.06620853
95	0x3daf976b	0.085738026
96	0x3de7d743	0.11320355
97	0xbca02a5e	-0.019551452
98	0xbdb93897	-0.09043997
99	0xbdbd2e36	-0.0923733
100	0xbd976948	-0.07393128
101	0xbdd2039d	-0.102545954
102	0x3debf268	0.11520845
103	0x3dc458fa	0.095872834
104	0xbd2e8eaf	-0.042616542
105	0xbd9c105f	-0.0762031
106	0xbd9bc3d6	-0.07605712
107	0xbd7fa21e	-0.062410466
108	0xbc52e7c2	-0.012872638
109	0x3d88ed25	0.06685857
110	0x3d1d2046	0.038360856
111	0xbe05f5e9	-0.13082089
112	0x3c9dd0d9	0.019264625
113	0xbdd512df	-0.1040399
114	0x3d64b284	0.05583431
115	0x3d4322d0	0.04764062
116	0x3d407f16	0.0469962
117	0xbd0c3ff5	-0.03424068
118	0x3d31eb4f	0.0434373
119	0xbdb7f7b2	-0.08982791
120	0x3c0c1de0	0.008552045
121	0xbd3b98af	-0.045799907
122	0x3dd78878	0.10524076
123	0x3d66be55	0.05633386
124	0xbc080833	-0.008302736
125	0xbdba4d70	-0.09096801
126	0x3cc5f0c1	0.024162652
127	0xbd562499	-0.052280996
128	0xbdc4ec38	-0.09615368
129	0xbdfbf9f1	-0.12303532
130	0x3d5b357d	0.053517807
131	0x3d19c225	0.037538666
132	0x3dd8966a	0.10575564
133	0x3ddced3b	0.107874356
134	0xbd11de8b	-0.035612624
135	0x3de1f44c	0.11032924
136	0xbdaed175	-0.085360445
137	0xbbaef63e	-0.005339413
138	0x3c93caa5	0.018040964
139	0x3da492a0	0.08035779
140	0xbdb1a959	-0.086748786
141	0x3de0b1e2	0.109714285
142	0xbd1f184b	-0.038841527
143	0xbdb31b70	-0.08745468
144	0x3de80c50	0.113304734
145	0x3cb819bd	0.02247321
146	0xbd845905	-0.06462292
147	0xbd8b038b	-0.06787785
148	0x3b98aaeb	0.004659047
149	0x3da85a79	0.08220381
150	0x3be2541d	0.0069069997
151	0x3de11338	0.10989994
152	0xbd3d0344	-0.046145692
153	0x3d8b0ddc	0.06789753
154	0xbdb4a615	-0.0882074
155	0x3da7e58b	0.08198079
156	0x3dd31a6d	0.10307775
157	0x3dd236f0	0.10264385
158	0xbd61444e	-0.05499678
159	0xbdba853f	-0.09107446
160	0xbe08bf0f	-0.13354133
161	0x3def5b65	0.11687354
162	0xbc8acc38	-0.016943082
163	0xbc4cbe6b	-0.012496571
164	0x3def7b13	0.116933964
165	0xbd51fe1e	-0.051267736
166	0x3da31e87	0.07964807
167	0xbdf47550	-0.11936438
168	0xbdb15d9d	-0.086604334
169	0xbcfa7359	-0.03057258
170	0x3dcd6110	0.10028279
171	0xbd4f2a99	-0.050577734
172	0xbd038a31	-0.03211421
173	0xbdab0cbb	-0.083520375
174	0x3df9abba	0.12190957
175	0x3de26ae3	0.11055543
176	0xbd5330ab	-0.051560085
177	0xbded81df	-0.115970366
178	0x3e0c28dc	0.13687462
179	0x3d4af8d2	0.0495537
180	0xbd686006	-0.0567322
181	0x3d34629c	0.044039354
182	0x3d497c2b	0.04919068
183	0xbddb7665	-0.10715941
184	0x3d7476af	0.059683498
185	0xbd8856c2	-0.06657173
186	0xbcdcce93	-0.026953971
187	0xbc82d034	-0.01596842
188	0x3b967fc2	0.0045928666
189	0x3d00d586	0.03145363
190	0xbd54e5e5	-0.051977057
191	0x3dea7e8b	0.114499174
192	0xbc493c31	-0.012282417
193	0x3deb3ac1	0.11485816
194	0x3d2ac232	0.041689105
195	0x3d0d2a46	0.034464143
196	0xbdc92e88	-0.09823328
197	0x3be842f6	0.0070880605
198	0x3c81a1b8	0.015824184
199	0x3d0507fd	0.03247832
200	0xbda4327f	-0.08017444
201	0xbd3ba3b0	-0.0458104
202	0xbda959ba	-0.08269067
203	0xbcc6bfea	-0.024261434
204	0x3d9ffe30	0.07812154
205	0xbda10f87	-0.0786429
206	0xbd90ac07	-0.070640616
207	0x3dc6f7a6	0.09715204
208	0x3e019f79	0.1265849
209	0xbda54820	-0.080703974
210	0xbd478237	-0.048708167
211	0x3d51019e	0.051026933
212	0x3dc50a38	0.0962109
213	0x3dbc57c7	0.0919643
214	0x3e319a81	0.17344095
215	0x3db3e653	0.08784165
216	0x3bdc69db	0.006726486
217	0xbc409ff8	-0.0117568895
218	0x3d63a8c0	0.055580854
219	0x3dc0a281	0.09405995
220	0xbce9c37d	-0.028535599
221	0x3c15db85	0.009146576
222	0x3c8cda99	0.01719408
223	0xbd86ead8	-0.06587762
224	0xbd7fe958	-0.062478393
225	0x3ba7c09a	0.0051193954
226	0x3b972588	0.0046126284
227	0xbdbc839c	-0.0920479
228	0xbd972aea	-0.07381232
229	0xbb877212	-0.0041334713
230	0xbda8f977	-0.08250707
231	0xbd9607ae	-0.073256835
232	0xbd91c6a8	-0.07117969
233	0xbbba7a06	-0.005690816
234	0xbc489e35	-0.012244751
235	0xbc81d7b1	-0.01584992
236	0x3d5aed5e	0.053449027
237	0x3de62088	0.112366736
238	0x3c0fd64d	0.008779121
239	0xbbd727eb	-0.006566038
240	0x3df95b88	0.12175661
241	0x3d75d2c1	0.060015444
242	0xbd34c11a	-0.04412947
243	0x3db4272d	0.08796535
244	0x3dff10e1	0.12454391
245	0xbd789b93	-0.060695242
246	0xbdcb20ea	-0.09918387
247	0xbde7f508	-0.11326033
248	0xbd1d2534	-0.038365558
249	0x3d300f74	0.042983487
250	0xbcd2b71d	-0.02572208
251	0x3cafdf6d	0.021468842
252	0xbdd4cbba	-0.1039042
253	0x3d0b22ad	0.033968616
254	0x3cad3cb8	0.021147117
255	0xbc9c4427	-0.019075466

value_layer.2.bias f4 [64]
0	0xbd897680	-0.06712055
1	0xbdcfeb9e	-0.10152362
2	0x3d0b6b33	0.03403778
3	0xbd564d38	-0.052319735
4	0x3d59bddc	0.05315958
5	0xbce904f1	-0.028444739
6	0x3dfa8039	0.12231488
7	0xbe2dad5b	-0.16960661
8	0x3db20e06	0.08694081
9	0xbcf1b09f	-0.029503165
10	0x3df67436	0.12033884
11	0xbd1ca5c0	-0.03824401
12	0xbdb42ced	-0.087976314
13	0x3d0cf47b	0.034412842
14	0x3d6482b6	0.05578872
15	0xbd898278	-0.06714338
16	0xbdb280c8	-0.08715969
17	0x3cd9f67d	0.026606793
18	0x3e3b441a	0.18287697
19	0xbdf1396b	-0.1177853
20	0xbd16a459	-0.036777828
21	0xbc98c4f2	-0.018648598
22	0xbde57290	-0.11203492
23	0x3d1baa85	0.038004417
24	0xbdb793b9	-0.08963723
25	0x3c857b00	0.016294003
26	0xbdebad5e	-0.115076765
27	0xbe2af136	-0.16693577
28	0xbe15f0d7	-0.14642654
29	0xbcedf694	-0.029048242
30	0xbb4f7b1f	-0.003165908
31	0x3d8e2635	0.06940881
32	0xbd20b9dc	-0.03923975
33	0x3d4ea641	0.05045152
34	0xbdc2a86e	-0.09504782
35	0x3d82f250	0.06393874
36	0xbe46844b	-0.19386403
37	0xbdb87313	-0.09006324
38	0xbe3eef00	-0.18645859
39	0xbd7ad969	-0.061242495
40	0x3d22819a	0.03967438
41	0xbb51063a	-0.003189458
42	0xbdf0ddf5	-0.11761085
43	0x3de805de	0.11329244
44	0xbba3464a	-0.0049827443
45	0xbdb6e6f4	-0.089307696
46	0x3caef85c	0.021358661
47	0x3de35bca	0.11101492
48	0xbe015565	-0.12630232
49	0x3da84533	0.08216324
50	0xbbd11c38	-0.0063815378
51	0x3cc4fee0	0.024047315
52	0xbd824799	-0.063613124
53	0xbd7134bd	-0.058888186
54	0x3e2bf139	0.16791238
55	0x3d8d7439	0.06906933
56	0x3e0c94be	0.13728616
57	0x3ce7b379	0.028283821
58	0x3cd3d490	0.025858194
59	0xbe39b6e5	-0.18136175
60	0xbd525833	-0.051353645
61	0xbd07453d	-0.033025015
62	0xbddc6644	-0.10761693
63	0xbcd56369	-0.026048379

value_layer.4.weight f4 [1, 64]
0	0xbd5269ac	-0.051370308
1	0x3c9cad82	0.019125704
2	0xbc66805f	-0.014068692
3	0xbd1d7e2c	-0.038450405
4	0x3b8f6cc0	0.0043769777
5	0xbd832965	-0.0640438
6	0xbd9a6859	-0.07539434
7	0x3cc343e5	0.023836086
8	0xbda7f147	-0.08200317
9	0x3c3edec8	0.011649795
10	0xbd93da3c	-0.07219359
11	0xbc89a67a	-0.016803015
12	0x3dab85da	0.083751395
13	0x3d8ac2aa	0.067754105
14	0xbdc11562	-0.094279066
15	0x3bc43aa9	0.005988438
16	0x3c4d48b1	0.012529538
17	0xbb1e3ad6	-0.0024143956
18	0xbd984d87	-0.07436662
19	0x3c4ade7d	0.012382147
20	0x3ced6121	0.028976979
21	0xbcf7f1e1	-0.030266704
22	0xbb464f71	-0.0030259753
23	0x3d181e82	0.03713847
24	0x3cd755dd	0.02628606
25	0xbb3e1a64	-0.002900743
26	0x3dd203a6	0.10254602
27	0x3cc3aa98	0.023885056
28	0x3db8a528	0.09015876
29	0xbc3d8edb	-0.011569704
30	0x3de07493	0.10959735
31	0xbcf6a74c	-0.03010907
32	0xbe064539	-0.13112344
33	0xbcf422de	-0.029801782
34	0x3bcabba1	0.006186918
35	0xbbc22166	-0.0059243916
36	0x3cc6f2c1	0.024285676
37	0xbb45a612	-0.00301588
38	0x3cd444be	0.025911685
39	0x3d1b1c46	0.03786876
40	0xbb9f062f	-0.004853032
41	0x3ccbc559	0.024874376
42	0x3989bd8a	0.00026271894
43	0xbd941085	-0.07229713
44	0x3d220a95	0.039560873
45	0xbc826792	-0.015918527
46	0x3db8574c	0.090010256
47	0xbb81a881	-0.003956855
48	0x3d11f2dc	0.035632
49	0x3daf3019	0.08554096
50	0xb9c789f3	-0.00038059018
51	0xbc19f07e	-0.009395717
52	0x3c0e1657	0.008672318
53	0xbc96634d	-0.018357897
54	0xbcef89a4	-0.029240437
55	0x3c770674	0.015077222
56	0xbd911743	-0.07084515
57	0xbd1d85c4	-0.038457647
58	0xba4e590b	-0.0007871545
59	0x3cf82eaa	0.030295689
60	0xbc8eb43b	-0.017419925
61	0x3c746c00	0.014918327
62	0x3db69f55	0.08917109
63	0x3c539b5f	0.012915461
